Assets/RunResults/My Behavior.onnx (onnx, 153509 bytes, 6 tensors)

network_body._body_endoder.seq_layers.0.weight f4 [128, 156]
000000 e0 ae 89 be 01 ad 64 bd b9 b3 a4 bc 6d e7 e4 3d
       -0.26891232 -0.055829052 -0.02010523 0.111769535
000010 e2 39 55 3d 25 b3 d3 bd e7 21 dd 3d f1 ce 07 3e
       0.052057154 -0.103369035 0.10797482 0.13262536
000020 56 dd 07 be ea 0e 2c be a8 f5 27 3d 4d 94 e5 ba
       -0.13268027 -0.16802564 0.04100576 -0.001751551
000030 22 11 2b 3d 27 b2 1d 3c 6b 1b 3b bd 1f 21 87 bc
       0.041764386 0.009624994 -0.045680445 -0.016495286
000040 61 3b f4 bd 6e b4 b3 bb 8f f2 e7 bc 12 78 e9 bd
       -0.11925388 -0.0054841554 -0.028313903 -0.11399855
000050 92 7c fa bb f8 0d 1c 3e 50 bb 91 3c e4 ef 8e b9
       -0.0076442445 0.15239704 0.017789513 -0.00027263083
000060 4d 48 97 3d 6d 31 9f bd e7 2d d2 3d 61 96 a2 bc
       0.07386837 -0.07773099 0.102626614 -0.019847097
000070 78 6a 99 3d c3 58 bd 3d 0d 91 10 3d 29 af 4e be
       0.074910104 0.092454456 0.03529458 -0.20184006
000080 b2 21 8f 3d 80 cb 1c bd 5d fb 20 3d 76 02 6a be
       0.06988849 -0.03828001 0.03930222 -0.22852501
000090 9e ee d7 3d 01 3d 80 3d 01 a7 c4 bd 83 23 f8 bd
       0.105435595 0.062616356 -0.09602166 -0.12116148
0000a0 f9 9e 30 3d 59 7b 45 3a 94 b7 15 be 83 b8 3d 3c
       0.04312036 0.0007533334 -0.14620811 0.011579636
0000b0 b4 02 d2 3d bd fa d2 3d b2 fc cb bd 08 b2 59 bd
       0.10254422 0.10301731 -0.09960307 -0.0531483
0000c0 8a e4 f5 3c 52 98 07 3e f7 3b 26 be 89 1f 09 3e
       0.030016202 0.132417 -0.16233812 0.13390936
0000d0 a0 ee 0a be 29 cd 1b bd 0a 3f 10 3e 8e ba ac bd
       -0.1356759 -0.038037453 0.14086547 -0.0843402
0000e0 5a 20 6c bd bc 7f 13 be a7 d3 b5 3d 1a 15 3b 3d
       -0.05764804 -0.14404196 0.0887826 0.04567442
0000f0 16 a9 f0 3d 20 78 b5 bd cc 6d 83 3d a2 31 91 bd
       0.117510006 -0.08860803 0.064174265 -0.07089545
000100 fa cb f7 bd 5e 91 3d bd 00 2f 9b bc b3 0c b2 bc
       -0.12099452 -0.04628121 -0.01894331 -0.021734571
000110 fb 74 d0 3d fe e4 00 3c 13 7f 3a 3d dd 86 a1 bd
       0.10178562 0.007867096 0.045531344 -0.07887051
000120 d8 68 50 3d 73 30 21 3e 69 40 11 3e 8d 1f 3f 3d
       0.050881237 0.15741138 0.14184727 0.04666095
000130 9c 0b 0e bd 54 31 31 3c 5d ea e8 bd 89 9e 05 bc
       -0.03467904 0.010814983 -0.11372826 -0.0081554735
000140 d8 65 2d 3e 92 77 1c 3e bd ff 24 be 06 de 0e 3e
       0.16933382 0.15279987 -0.16113181 0.13951883
000150 21 32 8e 3b b6 ff ec bc 4c cd 6d bd ed 1e 07 3d
       0.004339472 -0.028930526 -0.058057114 0.032988477
000160 fc 43 8c bd 87 b1 20 bd f8 4c 35 bd fe cc 3b 3d
       -0.068489045 -0.039231803 -0.044262856 0.045849793
000170 3d 35 3f 3d 2c 30 06 bd e2 53 45 3d 56 c9 66 3c
       0.04668163 -0.032760784 0.0481757 0.014086088
000180 d6 11 0b 3d e5 fb b1 3c b0 84 a2 bd c9 91 2f 3e
       0.033952557 0.021726558 -0.079354644 0.17145456
000190 6b 76 0a be fd f9 53 bd 17 85 12 be 10 da 35 be
       -0.13521735 -0.05175208 -0.14308582 -0.17758965
0001a0 e1 fe 27 3e 18 67 e7 3c 2a e2 af bd 00 d0 ca bc
       0.16405822 0.028247401 -0.08588059 -0.024757385
0001b0 6a 46 b7 3d c2 80 c9 bd 89 b1 52 bd 7a fe 2e 3b
       0.08948977 -0.09839012 -0.051438842 0.0026701973
0001c0 72 66 13 bd 73 bc db bd a9 a0 b1 3c d2 bf 32 bd
       -0.03598637 -0.10729303 0.021683054 -0.043639965
0001d0 85 97 95 bd ba 54 9b bc cb 08 d0 3d fa b5 cd 3c
       -0.07304291 -0.0189613 0.10157927 0.025111187
0001e0 4c f7 c5 3d 23 42 95 3c c4 61 77 bc fd 8c 6e 3e
       0.09666309 0.018220013 -0.015098993 0.2329597
0001f0 09 46 4c 3d 75 36 04 3e f9 8a d9 3d 32 bf fb 3d
       0.04987148 0.12911399 0.1062221 0.12292327
000200 11 19 ea bc 90 8c f6 3d f1 c0 11 be f6 6b 83 bc
       -0.028576406 0.12038529 -0.14233758 -0.01604269
000210 25 aa 5f 3d 9d 6f b4 3d 12 c1 14 bc df 7c 42 3d
       0.05460562 0.08810351 -0.009079235 0.047482368
000220 54 81 64 3d 2f ec 13 be 3a 26 f8 bc 6d 3e d8 bc
       0.0557874 -0.14445566 -0.030291665 -0.026396954
000230 13 7a 9b bc 46 4f da 3c 55 b3 0c 3e 0a 9f 1a bd
       -0.018979108 0.026649129 0.13740285 -0.037749328
000240 4a 93 31 3d 08 bb 0e 3e a0 5a 48 bd da 67 1d 3d
       0.043353356 0.13938534 -0.04891455 0.03842912
000250 e1 52 bd bd b6 9e a5 3b 46 28 d1 bc 70 95 29 be
       -0.092443235 0.00505432 -0.0255319 -0.16560912
000260 d7 4c 71 3b 90 57 90 bd f0 56 62 3c 55 22 2c be
       0.0036819482 -0.07047951 0.013814673 -0.16809972
000270 30 b5 91 3d 3b 73 20 bc 0b b6 18 3e 3e 34 33 3c
       0.07114637 -0.009793098 0.14913194 0.0109377485
000280 07 1b 5e 3d ed 5a e6 3d 65 ad fc 3d 7c df 91 bd
       0.054224994 0.112478115 0.1233776 -0.071227044
000290 43 f6 b7 3d bd ea 80 be 39 40 2c bd 77 eb 2a 3d
       0.089825176 -0.2517909 -0.042053435 0.041728463
0002a0 9a 0c 5f be ff 62 c8 3d cc c4 a5 bc 10 18 8f bc
       -0.21782151 0.09784507 -0.020235442 -0.017467529
0002b0 26 ce ad bc 36 f2 6d bd 83 8f b0 3d 1c e9 95 3c
       -0.021216463 -0.05809232 0.08621123 0.018299632
0002c0 c4 0f eb bc dc 05 98 3d 2a 54 14 bd a4 d2 a5 3d
       -0.028694041 0.074229926 -0.036213078 0.08096817
0002d0 e9 65 a4 bd 72 c3 af 3b e9 6d b6 3d 7b be f3 3b
       -0.0802725 0.005363875 0.089076824 0.0074384785
0002e0 b2 c0 5c bd 08 89 4e 3d aa 4f 8d 3d 19 ad 4a bd
       -0.053894706 0.050423652 0.0689996 -0.049481485
0002f0 17 40 89 bd df 64 8c 3c 03 85 eb 3d 02 9d 29 3e
       -0.06701677 0.017137943 0.11499979 0.165638
000300 f5 cf 23 3e 92 3a 5f bd f4 f6 01 bd ad 82 3f 3e
       0.15997298 -0.054499216 -0.031729653 0.18702193
000310 b5 bd 80 bd 6b f0 dc 3d 2d 41 42 3e 0f b4 47 bd
       -0.06286184 0.107880436 0.18970175 -0.0487557
000320 84 e6 17 3e 6e 70 7a bd aa 83 82 3d 62 27 c1 3c
       0.14834028 -0.061142378 0.06372769 0.02357835
000330 83 0f b5 3d c7 ba 8b 3b bf 9c a1 3d 3d ed 15 bd
       0.08840849 0.004264209 0.07891225 -0.0366032
000340 95 6f d4 bc 87 47 3b bb 10 f3 e2 bd cc e3 bd bd
       -0.025932113 -0.002857657 -0.11081517 -0.092719644
000350 c8 3c 44 bd b0 75 85 3d 6d c4 79 3c 56 47 81 bd
       -0.047909528 0.06516588 0.015244585 -0.063124344
000360 4c e0 d9 bd 26 e7 ac 3d 60 af c2 bd 75 ff 80 3e
       -0.10638484 0.084425256 -0.095061064 0.25194898
000370 54 17 67 3d 8d ba 53 bd 55 8f 8a 3d bc 5f 09 be
       0.05641873 -0.05169158 0.0676562 -0.13415426
000380 91 7e e8 bd 16 3f 16 3d 57 e0 c6 3c 01 83 ef bd
       -0.113522656 0.036681257 0.024276895 -0.11694909
000390 ac 14 83 3d 62 1a d7 bd a5 1e ae bd 06 3a 61 bd
       0.06400427 -0.10503079 -0.08501939 -0.054986976
0003a0 99 64 82 3d 6c 48 ba bc b3 ff b5 bc 5c 7e 82 3d
       0.06366844 -0.022739612 -0.022216653 0.063717574
0003b0 6d 6c 1b be 13 26 3a be 53 b9 07 3d eb 3c 5b 3d
       -0.1517808 -0.18178587 0.033135723 0.053524893
0003c0 83 a6 89 bd 3f 22 a3 3c 99 c1 02 be a1 e4 52 bd
       -0.06721213 0.01991379 -0.12769164 -0.05148757
0003d0 a7 f3 69 be d3 77 08 3d b2 a4 48 be da 7c cf bc
       -0.22846852 0.0333174 -0.19594076 -0.025328089
0003e0 85 ab a6 bc 45 ea 6b bd 6c fc 1e bb ec 4b 9c bc
       -0.020345459 -0.057596464 -0.0024259342 -0.019079171
0003f0 fd 50 6b 3c 48 9e 05 be 8a 20 1f 3d d3 49 84 3c
       0.014362571 -0.13048661 0.03884939 0.016148483

network_body._body_endoder.seq_layers.0.bias f4 [128]
000000 f7 19 dd bc 81 29 32 3b 23 ec 09 3d c9 ea 03 3d
       -0.02698992 0.0027185383 0.033672463 0.03220633
000010 a1 5d 86 bc 5a 8d 68 3c 76 95 bf 3c 62 1c 4d 3d
       -0.016402068 0.014193857 0.023386698 0.050075896
000020 4a 66 8a 3c 8b d9 35 3d 32 9f ae bc ef 2b 60 3c
       0.016894478 0.04439692 -0.021316145 0.01368235
000030 29 20 2e 3d 18 c0 4d 3d 60 83 25 3d 2d f3 3e 3d
       0.04251114 0.050232023 0.040408492 0.04661863
000040 a9 9e 28 3c 2a 6d 15 3d 6c 6d f2 3b 35 e3 a2 3c
       0.010291734 0.03648106 0.007398298 0.019883731
000050 e0 96 55 bc 7a 6b 7e 3c df bd 05 3d 07 60 c5 bc
       -0.01303646 0.015528554 0.03265178 -0.024093641
000060 11 d9 1e 3c ab 21 36 3c d5 75 e4 3c b0 42 2f 3d
       0.009695307 0.0111164255 0.027888218 0.042788208
000070 20 4f 88 3d a2 7d d5 3c af b9 7a 3c 76 05 94 bb
       0.06655717 0.026060883 0.0153030595 -0.0045172526
000080 13 17 87 3b 00 83 e2 ba 00 9d 88 bd b4 a3 3e 3d
       0.0041226237 -0.0017281473 -0.066705704 0.04654284
000090 da c0 37 3d b5 03 17 3d 6e dd d9 3c ed 07 e4 3c
       0.044861652 0.03686877 0.026594844 0.02783581
0000a0 bf 40 81 3d 5c 8c 7c bc 18 2a 2a 3d c8 5c b3 bb
       0.063111775 -0.015414324 0.04154405 -0.005473707
0000b0 c2 eb 1f 3b b2 27 3f 3c 94 dd ab 3c 8c 80 1a 3c
       0.0024401997 0.011667179 0.02097968 0.009430062
0000c0 be c1 5d bc d1 28 51 3d db 5f a6 bc 1d 59 89 ba
       -0.013534961 0.051064316 -0.02030938 -0.0010478828
0000d0 ac 61 0d 3c 76 57 0b bc 86 63 b4 bc 07 ba 6b 3d
       0.008629244 -0.008504739 -0.022020113 0.057550456
0000e0 ae 88 82 3d 79 20 80 3d 5a 76 01 3c 46 8a 26 3d
       0.06373726 0.06256194 0.007901752 0.04065921
0000f0 5a 0f 9f 3d 94 bc 08 3d 8c 52 b0 3c 4e 8c 8e 3c
       0.077666 0.033382967 0.021523736 0.017400887
000100 31 9c 2b 3d 6c b9 b3 3c fa 1b 3c 3c 44 1e 80 3c
       0.041897003 0.021939002 0.0114812795 0.015639432
000110 8a 06 a9 3c dd 2f 43 3d ef b5 90 3b 03 52 6a bc
       0.020633 0.047653068 0.0044162194 -0.01430178
000120 e6 3c 90 3c 5f e3 64 3d 4f a9 18 3d 24 b6 47 3c
       0.017607164 0.0558809 0.03727084 0.012189422
000130 34 8f 86 bb 9e 46 07 3d fc d0 59 3d 2d 98 1f bd
       -0.0041064266 0.03302633 0.05317782 -0.038963486
000140 67 bc 55 bd ec 53 11 3d 94 8b 1d 3d 18 83 8c 3c
       -0.052181628 0.035480425 0.03846319 0.017152354
000150 8e 65 a1 3b d4 7e 0e 3d 36 48 37 3c d9 e1 8a bc
       0.0049254363 0.03478892 0.01118665 -0.016953396
000160 59 ea 7f bb 1d 6a a1 3c 8c 00 eb 3b 3c 1c e6 3c
       -0.0039049594 0.019703919 0.007171696 0.028089635
000170 22 3a 4d 3b d7 c8 6c 3b 47 5d 6f 3c 62 cf 2e 3d
       0.0031315167 0.0036130452 0.014609641 0.042678244
000180 dd f9 0e 39 09 ad 17 3d 8a 34 34 bd 16 fc 3a bb
       0.00013635257 0.037030254 -0.043995418 -0.0028531603
000190 aa 33 0f 3d 83 36 28 bd 80 40 86 3d c3 c1 bf 3c
       0.03496138 -0.04106761 0.06555271 0.023407822
0001a0 2f ac 2a 3c b5 30 17 3d 5c ed 54 3c 96 34 97 bc
       0.010417028 0.036911685 0.012996044 -0.018457692
0001b0 3a 49 c0 3a d8 a5 57 bc 5d 28 f7 39 e4 45 14 3d
       0.0014670261 -0.013162099 0.00047141584 0.036199465
0001c0 f0 6c 1a 3d ae 95 d3 bc bf a6 3c 3d 57 29 1e 3d
       0.037701547 -0.025828209 0.04605746 0.038613643
0001d0 5b 49 a8 bc 4c be cc 3c 11 12 53 3b e4 42 fd 3c
       -0.020542791 0.024993084 0.0032206813 0.030915685
0001e0 a1 01 db 3c 52 83 34 3d a2 2f 40 3d b6 33 0a 3d
       0.026734175 0.04407055 0.046920426 0.03374072
0001f0 c7 16 e9 3c dc a9 e6 3c db ec 5e 3c 00 ee 12 3d
       0.028453244 0.028157167 0.013606275 0.035871506

network_body._body_endoder.seq_layers.2.weight f4 [128, 128]
000000 d9 34 be 3d 29 11 de 3d a9 70 20 3e 24 c2 3b bd
       0.09287424 0.10843117 0.15667976 -0.045839444
000010 09 b1 8c 3d 2c 5b da bb 00 f8 b5 3c e8 dd 45 be
       0.06869704 -0.0066637006 0.022212982 -0.19322932
000020 41 72 56 bb 37 81 11 3d c4 60 dc 3c 8d 95 49 3d
       -0.003272191 0.03552362 0.02690161 0.04921489
000030 df cc 83 3e 49 23 17 3d 7a f4 c7 bd 9d 06 d2 3b
       0.25742242 0.036898885 -0.09763427 0.00640948
000040 ae 04 24 3e 37 19 21 3e c8 4d 9f 3b 94 d7 0d be
       0.1601741 0.15732275 0.004861567 -0.13851768
000050 f8 f8 ef bc 2d 2b 89 3d 6f 6f 88 3d cf 59 4d 3e
       -0.029293522 0.06697688 0.06661879 0.2005379
000060 e7 97 ce bc ee e4 01 3e 8b d3 05 3d d7 ca df 3d
       -0.025218917 0.12684986 0.032672446 0.109273605
000070 64 6f d0 3d ee ea 6c 3d 45 84 75 3d ee 6e 05 be
       0.10177496 0.057841234 0.059940595 -0.13030598
000080 01 0b ff bd 07 14 cd 3d e7 f5 fd bc 53 65 02 3c
       -0.12453271 0.100135855 -0.031001044 0.007958728
000090 18 77 1c bd fd 5d ba bd 3f b3 a3 bd b4 3d c6 bd
       -0.038199514 -0.09099958 -0.07993173 -0.09679738
0000a0 51 38 5a bb 47 a9 8f bd d9 a4 a3 bc c3 0d 96 3c
       -0.0033297727 -0.07014709 -0.019976066 0.018317109
0000b0 f8 4e e1 bb 73 c9 0a 3d a0 d0 73 3e 9d b9 91 3d
       -0.006875869 0.033883523 0.23810053 0.07115481
0000c0 5d 66 bd 3d f8 d4 cd 3d d0 1f be bd 48 d0 b6 3c
       0.0924804 0.10050386 -0.092834115 0.022316113
0000d0 76 82 01 3e 8b 45 01 3e d0 5c 1d 3d 51 12 0e bc
       0.12647423 0.12624185 0.03841859 -0.008671359
0000e0 91 b6 46 bc 92 a8 86 3d a7 a4 21 bb ef 09 af 3d
       -0.012128488 0.06575121 -0.002466479 0.085468166
0000f0 0f fd 99 3d 39 89 a1 bd 25 ef 17 3e 24 fe a3 3d
       0.0751897 -0.07887501 0.1483732 0.08007458
000100 27 f2 d8 3d 27 03 89 3d 2f 4f ec 3d ce b4 dd bd
       0.10593062 0.066900544 0.115385406 -0.108255014
000110 e0 45 4c 3c df 20 c6 3c 6f a2 b6 3d 19 6d 1a 3e
       0.012467831 0.024185596 0.089177005 0.1508068
000120 8f b7 aa bd c5 36 ed 3c f4 81 11 bd b7 37 00 3e
       -0.08335792 0.02895678 -0.035524324 0.12521254
000130 27 c7 e0 bd 35 db 18 be 8b 0e b7 3d 68 10 01 be
       -0.10975485 -0.14927371 0.08938321 -0.12603915
000140 df aa 83 3c bd 8a db 3c aa 1a ba 3d 6d 03 0c bd
       0.016072689 0.026799554 0.09087117 -0.034182955
000150 cb 48 34 3d 7e 04 3d 3c 00 00 c8 3d aa d6 dc 3d
       0.044014733 0.011536716 0.09765625 0.107831314
000160 90 26 8f 3d b0 56 57 3e a3 97 de 3c a9 8f 63 bd
       0.06989777 0.21029162 0.027171915 -0.055556927
000170 9f 4f f8 3d 95 60 87 bd 47 55 95 3d a1 bb 81 bd
       0.121245615 -0.066102184 0.07291656 -0.063346155
000180 2b 2c 84 3d b3 cb 02 be ea 53 5c 3e 05 82 bd bd
       0.06453737 -0.12773018 0.21516386 -0.09253315
000190 66 8b 8c 3c 7e a0 2d be 6f 3e 0b be 14 8e 69 3d
       0.017156314 -0.16955754 -0.13598035 0.057020262
0001a0 56 6d dc 3d 25 4c 80 3d d1 b9 9e 3d ec 84 2a bd
       0.10763042 0.062645234 0.077502854 -0.04163067
0001b0 28 c5 c4 bc 20 96 23 3d 6e 91 65 bd 70 9b 2f 3e
       -0.024019793 0.039938092 -0.056046896 0.17149138
0001c0 7b 33 ef 3d 53 a6 83 be fc 71 89 bd b7 b1 d2 3c
       0.11679741 -0.25712833 -0.06711194 0.025719507
0001d0 90 53 6f bd e9 2c 4c 3e 4c 20 8c bc 1c 8e 16 bd
       -0.0584293 0.19939007 -0.017105244 -0.03675662
0001e0 c6 d5 96 bd e7 0b 76 3d cb e4 f5 3c 2e bf 42 3d
       -0.07364993 0.060069945 0.030016324 0.047545604
0001f0 a0 d4 66 bd ae 59 51 3d ea 6c ed 3c c6 af 2b bc
       -0.05635512 0.051110916 0.028982598 -0.010478919
000200 cf 26 03 3d 25 c8 04 be 20 d5 69 bc d7 09 12 bd
       0.032019433 -0.12966974 -0.014272004 -0.035653915
000210 71 8c fc 3d e5 80 a0 3d 39 dd 14 be 89 4d b7 3d
       0.123314746 0.07837085 -0.14537515 0.089503355
000220 d5 0a 58 3e 69 95 25 be 0b c3 20 3b 0f 99 3e 3c
       0.21097882 -0.16170277 0.0024530317 0.011633172
000230 30 21 32 3e f4 d6 53 be 15 5b 05 be 78 35 1a 3e
       0.17395473 -0.20687467 -0.13023026 0.15059459
000240 dc ba 1b 3e dc c8 a0 3d 19 07 0c bd 07 f5 d7 3d
       0.15208 0.07850811 -0.034186456 0.10544782
000250 e2 41 0a 3c bb 7a 4b be 8c 04 6b 3e 83 91 ec 3d
       0.008438559 -0.19871037 0.22950953 0.11551192
000260 9f aa 00 3e 50 69 a8 bd 69 91 53 3e 2f 72 6c 3e
       0.12565087 -0.08223212 0.20660938 0.23090433
000270 4d ea a7 3d 54 66 2f b9 0e d3 45 3d 69 08 8c 3c
       0.08198986 -0.00016727421 0.04829698 0.017093854
000280 60 af ee bc 2b 11 46 3e 0a 13 55 3c 25 a3 bf 3c
       -0.02913636 0.19342487 0.013005028 0.023393223
000290 4d 71 8e 3d d5 84 f7 3b d1 2f bf 3d 9c 95 5b be
       0.06955204 0.0075536766 0.09335292 -0.2144379
0002a0 93 00 f6 bd 3a e0 d2 bd cf ef 10 3e a6 7e 56 3d
       -0.12011828 -0.10296674 0.1415398 0.052366875
0002b0 ee 07 4a 3d b2 27 f1 3b 28 e9 86 3d de ff d1 3c
       0.04932397 0.0073594684 0.0658744 0.025634702
0002c0 df 26 36 3e 25 90 ca bd 50 f9 ab 3d 3f a6 89 3d
       0.17788266 -0.09890775 0.08397162 0.06721162
0002d0 08 7c cb bd 6b 8d d0 3d 5f f1 2b be ea 02 cd 3d
       -0.099357665 0.10183223 -0.16791295 0.100103214
0002e0 96 4b a0 bd b7 c6 0b bd a3 e4 ce 3d 39 d5 25 3e
       -0.07826917 -0.034125056 0.10102203 0.16194619
0002f0 05 02 f1 bd 41 6f d1 bd 33 fd 29 3b 3c 9e ed bd
       -0.11767963 -0.10226298 0.0025938272 -0.116024464
000300 ce 1a 2d be 86 88 eb 3c 40 a7 aa bd 68 3e 1f 3c
       -0.16904756 0.028751623 -0.08332682 0.009719469
000310 0f 99 82 3c fc be 5a 3d 34 62 c8 3d dd b6 e4 3d
       0.015942125 0.053404793 0.09784356 0.11167691
000320 4c 38 6b 3d 21 1c 17 bd a8 15 e8 b9 6d fa 6d 3e
       0.057426736 -0.03689206 -0.00044266623 0.23240061
000330 f6 9e 97 3c f6 ec 25 be 4c b9 d6 3d da e3 32 3e
       0.018508416 -0.16203675 0.10484561 0.17469731
000340 17 2e 03 3d 87 a0 ae 3d 2b 9c 56 3d 06 0f f5 bd
       0.032026377 0.08526712 0.052395027 -0.11965756
000350 13 8d 0c be 9b ea 39 3d fc 61 d3 3d 5b 52 88 3d
       -0.1372569 0.045389753 0.103214234 0.06656333
000360 46 3e 4a 3c bd bf ca bd 9e 43 82 3e 8a bd 09 be
       0.012343949 -0.098998524 0.25442213 -0.1345121
000370 ba 15 28 3e 94 2a ac bd ab 41 8c 3c 3a 95 9b bc
       0.16414538 -0.08406559 0.017121157 -0.018992055
000380 5b 2f c7 3d c3 29 e3 3d c7 b7 6a be 0b ab cd 3d
       0.09725829 0.1109195 -0.22921668 0.100423895
000390 a8 22 30 3d 43 96 06 bd 7b bc 8d 3d c7 73 20 bc
       0.0430018 -0.032858144 0.069207154 -0.0097932285
0003a0 36 2b a5 bd 97 9a 1e 3e 42 ad ee 3d 54 a2 8a bd
       -0.080648825 0.15488659 0.1165414 -0.06769243
0003b0 96 38 2e bd 55 07 e4 3d d4 4d 2d bb c7 75 c3 3d
       -0.042534433 0.11134211 -0.0026444094 0.095439486
0003c0 91 9d e0 3d 11 99 40 bb 78 cb a8 3d 99 03 64 3d
       0.109675534 -0.002938811 0.082419336 0.055667493
0003d0 c6 e1 15 3e 91 8e 43 bd e1 8f d2 3c 05 c1 9e bd
       0.14636907 -0.047743384 0.025703372 -0.07751659
0003e0 85 8e 30 3e 70 c0 4f 3d a5 09 70 3e 9c 9a ba 3c
       0.17241867 0.050720632 0.23441179 0.022778802
0003f0 5c d1 74 be 8a 9c 46 3e 25 10 98 3d cd 29 e5 bc
       -0.2390799 0.19395652 0.07424954 -0.027974034

network_body._body_endoder.seq_layers.2.bias f4 [128]
000000 a1 80 39 3c dc 19 84 3b 23 1a fc 3b 1e 93 f4 3c
       0.011322171 0.004031403 0.0076935454 0.029855307
000010 6b a6 94 bc f7 27 fe 3c fd 95 37 3c 20 9d a5 3c
       -0.01814576 0.031024916 0.011205194 0.020216525
000020 e9 d0 2d 3d 30 ab 1a 3c 28 6e 07 3d ef d0 48 3d
       0.04243556 0.009440228 0.033064038 0.04902738
000030 61 b7 c9 3c dc 2d ae 3c fa 0a 9c 3c 4d ba 29 3d
       0.024623575 0.021262102 0.019048203 0.041437436
000040 c8 e4 55 3d 2b d9 9e 3b 4c a0 ad 3c b7 45 cb 3c
       0.052220136 0.004847666 0.0211946 0.024813516
000050 f0 3f ec 3c 68 b4 10 3d ea 40 e0 3c c7 dd 4a 3d
       0.028839082 0.0353283 0.027374703 0.04952791
000060 7d 28 f5 3c 98 be 03 3d c4 38 93 3c 3a d2 ba 3c
       0.029926533 0.032164186 0.017971404 0.022805322
000070 76 53 e1 3c 1e 39 49 bd c1 3a a9 3c 6e ac 34 3c
       0.027505618 -0.049126737 0.020657899 0.011027439
000080 1a 87 29 3c 7d 86 26 3c 25 bc d3 3c 8a bc f1 3c
       0.010347152 0.0101639 0.02584655 0.029508848
000090 99 13 3b 3d 03 01 04 3d ba c7 6e 3c f8 32 cb 3c
       0.045672987 0.032227527 0.014573986 0.024804577
0000a0 6c e4 0e 3d dc 0c 3f 3c 93 f6 0c 3c 95 50 e8 bc
       0.03488581 0.011660781 0.00860371 -0.028358737
0000b0 c7 bf 74 3c bd a3 97 3c 29 3f 5c 3c 0a 38 13 3d
       0.014938301 0.018510694 0.013442793 0.035942115
0000c0 7a b1 d5 3c df f3 2b 3d 06 0c 07 bd 3c 02 91 3c
       0.026085604 0.04198062 -0.03297045 0.01770126
0000d0 4b b6 c7 3c cd 90 74 3c c5 2f 17 3d bd cd 26 3d
       0.024378916 0.014927101 0.03691079 0.04072355
0000e0 a6 4f 2d 3c 81 97 7c 3d 49 71 20 3d ad bf 39 3d
       0.010578072 0.061667923 0.039170537 0.045348812
0000f0 e0 ba 52 3d ae d2 cb 3b a1 31 fe 3c c3 bb 3e 3d
       0.05144775 0.0062201833 0.031029524 0.046565782
000100 ae 9a 28 bd e7 0b bb 3c 87 4a 23 3d 80 e8 b8 3c
       -0.04116314 0.022832824 0.039865997 0.022571802
000110 61 a0 ff 3c 71 83 ef 3c c5 f4 b9 3c dd 84 88 bc
       0.031204404 0.02923748 0.022699723 -0.016664917
000120 90 67 12 3d d8 75 47 bc 32 1f bd 3c 40 9e 0d 3c
       0.035743296 -0.012174092 0.023086164 0.008643687
000130 d0 89 88 3b 03 11 e6 3c 32 80 a6 3b 0e 93 0d 3d
       0.004166819 0.028084284 0.0050812 0.03456407
000140 15 88 70 bb 89 6a 22 3d 01 dc 4e 3c f8 71 79 3d
       -0.0036702205 0.03965238 0.012625695 0.060899705
000150 3f 61 92 3c 56 39 1c 3d 9e b5 a1 3c 25 0e 7c 3c
       0.017868636 0.038140617 0.019739922 0.015384232
000160 70 58 3c 3b e8 5e 14 3d 3b e2 17 3d 08 d2 8a 3d
       0.0028739236 0.036223322 0.037080985 0.067783415
000170 d0 84 7e 3c 73 fb 7b 3d 29 8f 43 bc bd 5a 23 3d
       0.015534595 0.061519098 -0.0119359875 0.039881457
000180 aa d6 b6 3c b2 a1 29 3d 8e 71 7b 3c f4 29 50 3b
       0.022319157 0.04141397 0.015346898 0.0031763287
000190 ba d8 2a 3c 0a 7e ca 3c c6 30 8d 3c a2 9e af 3c
       0.010427648 0.024718303 0.017235171 0.021437947
0001a0 ea e2 ec 3c e0 ea 88 3c 76 5c 8c 3c 5d 97 93 3c
       0.028916795 0.01671356 0.017133933 0.018016512
0001b0 3b 1a 3a 3d 59 45 cb bb c1 18 09 3d 5e e2 cc 3c
       0.04543517 -0.0062033352 0.033470873 0.025010284
0001c0 5c 01 fe 3c ef 46 d5 3b 84 fb fa 3c 25 c1 70 3d
       0.031006508 0.0065087 0.03063751 0.058777947
0001d0 6a cd ab 3c 90 90 b6 3c 82 3b 75 3c 7b 8a e8 3c
       0.020971972 0.02228573 0.014967801 0.028386345
0001e0 70 8b c5 3c 2b 94 3f 3d e1 2f 83 3c 5e 1d 4d 3c
       0.02411434 0.046772163 0.016014041 0.012519209
0001f0 42 60 19 3d cd 8b 8f 3c 89 19 dd 3c c5 df 12 3c
       0.037445314 0.017522717 0.026989715 0.008964484

action_model._discrete_distribution.branches.0.weight f4 [4, 128]
000000 7b d8 8d ba 4d 4d 7a bb 6d bf 87 3d 67 78 07 3d
       -0.0010821962 -0.0038193048 0.066283084 0.03307381
000010 63 45 87 3c 6a 34 ed 3a ba b4 06 3d c8 ba 81 bd
       0.016512578 0.0018097286 0.032887198 -0.06334454
000020 f0 84 d5 ba a1 ae 3d bd b3 a3 85 bd 88 4a 1e bd
       -0.0016290229 -0.046309117 -0.06525364 -0.038645297
000030 59 50 be bb 08 7f 2a bb 5c a2 4b bc f0 ca 40 bd
       -0.005807918 -0.0026015658 -0.012428846 -0.047068536
000040 36 32 31 bd a5 95 a6 3c 56 ac 88 bd b4 22 ea bc
       -0.043260776 0.020335028 -0.066734955 -0.028581
000050 2d 58 36 bd 19 f5 31 bd ba 6a 24 bc 14 98 c7 bc
       -0.044517685 -0.043446634 -0.010035211 -0.024364509
000060 05 38 21 3c cc f0 a8 bb 76 3c 43 3c 71 f8 bf 3c
       0.009840016 -0.0051556583 0.0119162705 0.023433896
000070 27 bb 76 bd a6 74 c2 3c 04 7e 85 bd 6c 04 a4 3c
       -0.060237076 0.023737263 -0.06518176 0.02002164
000080 b0 a4 54 3d 56 4e 0a 3d a1 8b 67 3b e3 55 e3 bc
       0.05191487 0.033766113 0.0035331028 -0.027750915
000090 e7 5d c4 bd ba 57 6e bc 52 00 e2 3c 7a 05 d7 bc
       -0.09588223 -0.014547283 0.027588043 -0.026247729
0000a0 00 12 14 bd 02 05 1c 3d 54 36 f0 3b 8c 41 4f bc
       -0.03614998 0.038090713 0.007330695 -0.012649905
0000b0 48 ab a2 bc 75 87 57 bd 5b 57 ff 3b d4 43 41 bd
       -0.019857064 -0.052619416 0.007792396 -0.047183827
0000c0 8a 38 ca bb eb 18 b1 bc c1 4e ee 3a 78 2a 84 bd
       -0.0061712908 -0.021618327 0.001818143 -0.06453413
0000d0 35 2a f0 bc a5 d4 73 3b dc a8 24 bd 2d 85 5d bd
       -0.029317 0.0037205603 -0.0402001 -0.054082084
0000e0 20 90 35 3c 01 b4 36 bd e1 9c 55 bd 53 59 3f bd
       0.011081725 -0.04460526 -0.052151565 -0.046716046
0000f0 fd c7 33 bd 61 79 9b bc 65 96 75 bc f7 84 81 bc
       -0.043891896 -0.018978776 -0.01498947 -0.015810473
000100 6d 3f 0a bb 79 e5 a1 ba 1f d9 8d bd f3 e8 32 bb
       -0.0021094934 -0.0012351713 -0.06926178 -0.0027299493
000110 98 f5 04 bd 7f cd 16 bc 34 5e dd 3b 41 d3 5d bc
       -0.03246078 -0.0092042675 0.0067556147 -0.013539136
000120 a7 3f 0e 3c dc 2b dd bb 7d a0 1d bd 46 84 2b bc
       0.008682168 -0.006749613 -0.03848313 -0.010468548
000130 a4 bb a9 bc 1c 14 8e bd 4d d5 23 3c 2e 18 35 bd
       -0.020719357 -0.06937429 0.009999585 -0.044212513
000140 20 1d e9 3c 1c bb 3b 3d e1 d4 95 bc 60 41 67 bd
       0.02845627 0.04583274 -0.018289985 -0.05645883
000150 ce 75 70 3c 05 ca 0f bd 8f 45 c1 bc 6c a2 68 bd
       0.014676524 -0.03510477 -0.023592738 -0.056795523
000160 cf 1a 23 3b d3 02 01 bd 26 9b c2 bc 5c d6 56 bd
       0.0024887805 -0.031496834 -0.023755621 -0.052450523
000170 13 9f bb bb 55 22 96 bc f5 e9 88 3c 5e ac 46 bc
       -0.0057257502 -0.018326918 0.016713122 -0.0121260565
000180 8b 1a 8b 3a b4 a6 3f bd 1a a6 b0 3a 27 fd c0 bc
       0.0010612769 -0.04678984 0.0013477236 -0.023558212
000190 cf 67 6f 3c ee 74 61 bc 11 b0 1c bc ff f4 d7 bc
       0.014612152 -0.013760788 -0.009563462 -0.02636194
0001a0 2b 85 be bc 2c d1 a0 bd 38 96 9a 3c 73 83 22 bb
       -0.023256859 -0.07852396 0.018870458 -0.0024797588
0001b0 5a 00 e8 bc 16 d7 24 3c da 05 55 3c b8 fc 00 bd
       -0.02832048 0.010061046 0.013001883 -0.03149101
0001c0 4e 8b ec bc ca 5f 04 3d 5c 47 87 bd 8f 14 f1 bc
       -0.02887502 0.032317914 -0.066054076 -0.029428748
0001d0 1f 82 09 bd af 6f 23 bd bf e1 fe bc bf 12 98 3b
       -0.03357136 -0.03990143 -0.031113504 0.0046409066
0001e0 51 52 e8 bb 27 6f 34 bc e1 78 a0 bc f2 a0 d7 bb
       -0.007089891 -0.011012829 -0.01958889 -0.0065804655
0001f0 c4 36 99 bb 95 f2 2f bc 8c db 4f bc eb de cb 3c
       -0.004675718 -0.010738988 -0.012686621 0.024886569
000200 96 ea 72 bd 1d 40 17 bc 52 62 bb 3d 3e f5 52 bd
       -0.05930575 -0.009231594 0.091496125 -0.051503412
000210 7d cc b5 3a 3d df 08 3d 6b f3 df bb 0b f4 37 bc
       0.0013870146 0.03341602 -0.0068344376 -0.011227618
000220 70 d9 5e bd 81 12 74 bc 2f 35 26 bd a4 2d 8e bd
       -0.054406583 -0.01489699 -0.040578064 -0.06942299
000230 4e 34 94 3b 7d be 1c bc 5f 26 95 3c bc 31 31 bd
       0.0045228368 -0.0095669 0.018206773 -0.04326032
000240 b7 30 55 bd c4 14 f0 bc 13 b3 b7 bc aa a2 2d bd
       -0.05204841 -0.029306777 -0.022424256 -0.042391457
000250 dc 33 6a bd 05 04 4e bd 3d db 12 bd e2 8f d3 bd
       -0.057178363 -0.050296802 -0.035853613 -0.10330178
000260 99 87 cb 3c 6c af 17 bc 78 62 16 bd 05 9f 47 bd
       0.024844931 -0.009258132 -0.036715 -0.048735637
000270 94 fd f4 bc f4 92 32 bb 0c 47 af bc 37 e9 bd ba
       -0.029906072 -0.0027248235 -0.021396182 -0.0014489059
000280 08 5e df 3c f5 64 48 3c 06 f0 79 bb 78 11 83 3c
       0.027266517 0.012231101 -0.003813745 0.01599954
000290 70 0a 01 bd 99 26 a1 bd 62 f9 54 bc 7c e9 72 bc
       -0.031504095 -0.0786869 -0.012998911 -0.014826175
0002a0 f7 b9 9b bd 35 f6 57 bc 92 85 65 3a db 02 2b 3d
       -0.07603829 -0.013181259 0.000875556 0.04175077
0002b0 e6 05 88 bc bd 14 23 bc f0 c1 b2 bc 79 b2 d9 3a
       -0.016604375 -0.009953675 -0.021820992 0.0016608975
0002c0 08 92 8b bd bb 9d 6a bd 27 b5 1e 3d aa 4d 23 3c
       -0.068149626 -0.05727933 0.03874698 0.009967247
0002d0 a4 68 4f bd 2e 96 e9 bc 07 aa 32 bd 61 80 14 bd
       -0.050636902 -0.028513994 -0.043619182 -0.036255244
0002e0 fa 0a fa bc 56 74 5e bd c4 5a 24 bd 15 17 d0 bc
       -0.030522812 -0.054310165 -0.040125623 -0.025401631
0002f0 3c b9 66 bd 3d 2f 67 3d b1 96 2e bd 3d 28 41 bd
       -0.056328997 0.056441534 -0.04262418 -0.047157515
000300 fc 3c 47 3d 98 07 64 bc 53 10 03 3d fd bb 34 bd
       0.048642144 -0.013917826 0.03199799 -0.044124592
000310 34 47 e5 bc b3 e9 c2 bd 1f 59 6d bd d4 ea 94 3c
       -0.027988054 -0.09517231 -0.05794632 0.018178381
000320 6d 30 6c bd f4 cb 3f 3d 7b 4a c5 bc be 46 ba bc
       -0.05766337 0.046825364 -0.024083367 -0.02273881
000330 99 f8 df 3c fc ea b5 3c df 54 a7 bc 5f cd 49 bd
       0.02734022 0.022206776 -0.020426212 -0.049268123
000340 bd 52 0a 3d dc 67 9b 3d e3 07 0e bd e1 f8 17 bd
       0.03377031 0.07588169 -0.03467549 -0.037102584
000350 65 3d 68 bc 61 2f a0 bd b4 5f 8a 3c 0b 95 7c bc
       -0.014174794 -0.07821537 0.016891338 -0.015416394
000360 d6 61 9f bc 95 76 e4 3c 80 0c d3 bc 7d d0 81 bc
       -0.019455831 0.027888576 -0.025762796 -0.015846485
000370 5e 34 12 bd ac 6e ad bd 2d 8b 82 3d 08 5b 4c 3c
       -0.035694472 -0.084683746 0.06374202 0.012472875
000380 cf 4c 77 bd 7b bd 02 bd 9f 3e f9 bc 10 af 1f bd
       -0.060375985 -0.031918984 -0.030425368 -0.038985312
000390 1a 2d 42 3c 0c ee 88 bd 04 28 a8 bb 0a 85 d2 bc
       0.011851573 -0.06686029 -0.0051317234 -0.025698204
0003a0 a7 bd 9c bc 46 44 b3 3c f0 0e c5 bc ad 6a 81 bd
       -0.019133402 0.021883141 -0.024054974 -0.06319175
0003b0 f1 c2 8e bd 3f 25 9c bc f6 08 15 bd 83 c9 0e bd
       -0.06970776 -0.01906073 -0.0363855 -0.034860145
0003c0 d3 7b 7b bd 99 6d ce 3d 08 b9 f4 3c 23 05 a9 bd
       -0.061397385 0.10079498 0.029873386 -0.08252933
0003d0 0c 6e eb bb 58 dd ed bc 48 86 1e bd f4 46 a1 bd
       -0.0071847495 -0.029036209 -0.03870228 -0.07874861
0003e0 58 c4 66 bd 69 af 2f 3d 28 3f 12 bd 62 ec 82 bd
       -0.05633959 0.042891894 -0.03570476 -0.06392743
0003f0 ea ce d1 bd 4b 7b 97 bd 56 67 4a bd 41 dc ee bc
       -0.10244544 -0.07396563 -0.049414955 -0.02915776

action_model._discrete_distribution.branches.0.bias f4 [4]
000000 2f 87 d4 3b b9 9f 15 bd 0a 48 63 3b d0 12 1c 3c
       0.0064858417 -0.036529277 0.003468039 0.00952597
